…
    (12): MaxPool2d(kernel_size=2, stride=2, padding=0, dilation=1, ceil_mode=False)
  )
  (classifier): Sequential(
    (0): Dropout(p=0.5, inplace=False)
    (1): Linear(in_features=50176, out_features=4096, bias=True)
    (2): ReLU(inplace=True)
    (3): Dropout(p=0.5, inplace=False)
    (4): Linear(in_features=4096, out_features=4096, bias=True)
    (5): ReLU(inplace=True)
    (6): Linear(in_features=4096, out_features=10, bias=True)
  )
)
----------------------------------------------------------------
        Layer (type)               Output Shape         Param #
================================================================
            Conv2d-1         [-1, 64, 112, 112]           1,792
              ReLU-2         [-1, 64, 112, 112]               0
         MaxPool2d-3           [-1, 64, 56, 56]               0
            Conv2d-4          [-1, 192, 56, 56]         110,784
              ReLU-5          [-1, 192, 56, 56]               0
         MaxPool2d-6          [-1, 192, 28, 28]               0
            Conv2d-7          [-1, 384, 28, 28]         663,936
              ReLU-8          [-1, 384, 28, 28]               0
            Conv2d-9          [-1, 256, 28, 28]         884,992
             ReLU-10          [-1, 256, 28, 28]               0
           Conv2d-11          [-1, 256, 28, 28]         590,080
             ReLU-12          [-1, 256, 28, 28]               0
        MaxPool2d-13          [-1, 256, 14, 14]               0
          Dropout-14                [-1, 50176]               0
           Linear-15                 [-1, 4096]     205,524,992
             ReLU-16                 [-1, 4096]               0
          Dropout-17                 [-1, 4096]               0
           Linear-18                 [-1, 4096]      16,781,312
             ReLU-19                 [-1, 4096]               0
           Linear-20                   [-1, 10]          40,970
================================================================
Total params: 224,598,858
Trainable params: 224,598,858
Non-trainable params: 0
----------------------------------------------------------------
Input size (MB): 0.57
Forward/backward pass size (MB): 35.76
Params size (MB): 856.78
Estimated Total Size (MB): 893.11
----------------------------------------------------------------